{"config": {"name": "FaceRecoModel", "input_layers": [["input_3", 0, 0]], "layers": [{"config": {"name": "input_3", "sparse": false, "batch_input_shape": [null, 3, 96, 96], "dtype": "float32"}, "class_name": "InputLayer", "name": "input_3", "inbound_nodes": []}, {"config": {"trainable": true, "name": "zero_padding2d_47", "padding": [[3, 3], [3, 3]], "data_format": "channels_first"}, "class_name": "ZeroPadding2D", "name": "zero_padding2d_47", "inbound_nodes": [[["input_3", 0, 0, {}]]]}, {"config": {"trainable": true, "name": "conv1", "filters": 64, "kernel_constraint": null, "dilation_rate": [1, 1], "kernel_regularizer": null, "bias_initializer": {"config": {}, "class_name": "Zeros"}, "activation": "linear", "bias_regularizer": null, "strides": [2, 2], "kernel_initializer": {"config": {"scale": 1.0, "mode": "fan_avg", "seed": null, "distribution": "uniform"}, "class_name": "VarianceScaling"}, "padding": "valid", "data_format": "channels_first", "activity_regularizer": null, "bias_constraint": null, "use_bias": true, "kernel_size": [7, 7]}, "class_name": "Conv2D", "name": "conv1", "inbound_nodes": [[["zero_padding2d_47", 0, 0, {}]]]}, {"config": {"momentum": 0.99, "trainable": true, "name": "bn1", "center": true, "axis": 1, "beta_initializer": {"config": {}, "class_name": "Zeros"}, "beta_regularizer": null, "moving_variance_initializer": {"config": {}, "class_name": "Ones"}, "epsilon": 0.001, "scale": true, "gamma_constraint": null, "moving_mean_initializer": {"config": {}, "class_name": "Zeros"}, "gamma_initializer": {"config": {}, "class_name": "Ones"}, "gamma_regularizer": null, "beta_constraint": null}, "class_name": "BatchNormalization", "name": "bn1", "inbound_nodes": [[["conv1", 0, 0, {}]]]}, {"config": {"activation": "relu", "trainable": true, "name": "activation_75"}, "class_name": "Activation", "name": "activation_75", "inbound_nodes": [[["bn1", 0, 0, {}]]]}, {"config": {"trainable": true, "name": "zero_padding2d_48", "padding": [[1, 1], [1, 1]], "data_format": "channels_first"}, "class_name": "ZeroPadding2D", "name": "zero_padding2d_48", "inbound_nodes": [[["activation_75", 0, 0, {}]]]}, {"config": {"trainable": true, "name": "max_pooling2d_13", "padding": "valid", "data_format": "channels_first", "pool_size": [3, 3], "strides": [2, 2]}, "class_name": "MaxPooling2D", "name": "max_pooling2d_13", "inbound_nodes": [[["zero_padding2d_48", 0, 0, {}]]]}, {"config": {"trainable": true, "name": "conv2", "filters": 64, "kernel_constraint": null, "dilation_rate": [1, 1], "kernel_regularizer": null, "bias_initializer": {"config": {}, "class_name": "Zeros"}, "activation": "linear", "bias_regularizer": null, "strides": [1, 1], "kernel_initializer": {"config": {"scale": 1.0, "mode": "fan_avg", "seed": null, "distribution": "uniform"}, "class_name": "VarianceScaling"}, "padding": "valid", "data_format": "channels_first", "activity_regularizer": null, "bias_constraint": null, "use_bias": true, "kernel_size": [1, 1]}, "class_name": "Conv2D", "name": "conv2", "inbound_nodes": [[["max_pooling2d_13", 0, 0, {}]]]}, {"config": {"momentum": 0.99, "trainable": true, "name": "bn2", "center": true, "axis": 1, "beta_initializer": {"config": {}, "class_name": "Zeros"}, "beta_regularizer": null, "moving_variance_initializer": {"config": {}, "class_name": "Ones"}, "epsilon": 1e-05, "scale": true, "gamma_constraint": null, "moving_mean_initializer": {"config": {}, "class_name": "Zeros"}, "gamma_initializer": {"config": {}, "class_name": "Ones"}, "gamma_regularizer": null, "beta_constraint": null}, "class_name": "BatchNormalization", "name": "bn2", "inbound_nodes": [[["conv2", 0, 0, {}]]]}, {"config": {"activation": "relu", "trainable": true, "name": "activation_76"}, "class_name": "Activation", "name": "activation_76", "inbound_nodes": [[["bn2", 0, 0, {}]]]}, {"config": {"trainable": true, "name": "zero_padding2d_49", "padding": [[1, 1], [1, 1]], "data_format": "channels_first"}, "class_name": "ZeroPadding2D", "name": "zero_padding2d_49", "inbound_nodes": [[["activation_76", 0, 0, {}]]]}, {"config": {"trainable": true, "name": "conv3", "filters": 192, "kernel_constraint": null, "dilation_rate": [1, 1], "kernel_regularizer": null, "bias_initializer": {"config": {}, "class_name": "Zeros"}, "activation": "linear", "bias_regularizer": null, "strides": [1, 1], "kernel_initializer": {"config": {"scale": 1.0, "mode": "fan_avg", "seed": null, "distribution": "uniform"}, "class_name": "VarianceScaling"}, "padding": "valid", "data_format": "channels_first", "activity_regularizer": null, "bias_constraint": null, "use_bias": true, "kernel_size": [3, 3]}, "class_name": "Conv2D", "name": "conv3", "inbound_nodes": [[["zero_padding2d_49", 0, 0, {}]]]}, {"config": {"momentum": 0.99, "trainable": true, "name": "bn3", "center": true, "axis": 1, "beta_initializer": {"config": {}, "class_name": "Zeros"}, "beta_regularizer": null, "moving_variance_initializer": {"config": {}, "class_name": "Ones"}, "epsilon": 1e-05, "scale": true, "gamma_constraint": null, "moving_mean_initializer": {"config": {}, "class_name": "Zeros"}, "gamma_initializer": {"config": {}, "class_name": "Ones"}, "gamma_regularizer": null, "beta_constraint": null}, "class_name": "BatchNormalization", "name": "bn3", "inbound_nodes": [[["conv3", 0, 0, {}]]]}, {"config": {"activation": "relu", "trainable": true, "name": "activation_77"}, "class_name": "Activation", "name": "activation_77", "inbound_nodes": [[["bn3", 0, 0, {}]]]}, {"config": {"trainable": true, "name": "zero_padding2d_50", "padding": [[1, 1], [1, 1]], "data_format": "channels_first"}, "class_name": "ZeroPadding2D", "name": "zero_padding2d_50", "inbound_nodes": [[["activation_77", 0, 0, {}]]]}, {"config": {"trainable": true, "name": "max_pooling2d_14", "padding": "valid", "data_format": "channels_first", "pool_size": [3, 3], "strides": [2, 2]}, "class_name": "MaxPooling2D", "name": "max_pooling2d_14", "inbound_nodes": [[["zero_padding2d_50", 0, 0, {}]]]}, {"config": {"trainable": true, "name": "inception_3a_3x3_conv1", "filters": 96, "kernel_constraint": null, "dilation_rate": [1, 1], "kernel_regularizer": null, "bias_initializer": {"config": {}, "class_name": "Zeros"}, "activation": "linear", "bias_regularizer": null, "strides": [1, 1], "kernel_initializer": {"config": {"scale": 1.0, "mode": "fan_avg", "seed": null, "distribution": "uniform"}, "class_name": "VarianceScaling"}, "padding": "valid", "data_format": "channels_first", "activity_regularizer": null, "bias_constraint": null, "use_bias": true, "kernel_size": [1, 1]}, "class_name": "Conv2D", "name": "inception_3a_3x3_conv1", "inbound_nodes": [[["max_pooling2d_14", 0, 0, {}]]]}, {"config": {"trainable": true, "name": "inception_3a_5x5_conv1", "filters": 16, "kernel_constraint": null, "dilation_rate": [1, 1], "kernel_regularizer": null, "bias_initializer": {"config": {}, "class_name": "Zeros"}, "activation": "linear", "bias_regularizer": null, "strides": [1, 1], "kernel_initializer": {"config": {"scale": 1.0, "mode": "fan_avg", "seed": null, "distribution": "uniform"}, "class_name": "VarianceScaling"}, "padding": "valid", "data_format": "channels_first", "activity_regularizer": null, "bias_constraint": null, "use_bias": true, "kernel_size": [1, 1]}, "class_name": "Conv2D", "name": "inception_3a_5x5_conv1", "inbound_nodes": [[["max_pooling2d_14", 0, 0, {}]]]}, {"config": {"momentum": 0.99, "trainable": true, "name": "inception_3a_3x3_bn1", "center": true, "axis": 1, "beta_initializer": {"config": {}, "class_name": "Zeros"}, "beta_regularizer": null, "moving_variance_initializer": {"config": {}, "class_name": "Ones"}, "epsilon": 1e-05, "scale": true, "gamma_constraint": null, "moving_mean_initializer": {"config": {}, "class_name": "Zeros"}, "gamma_initializer": {"config": {}, "class_name": "Ones"}, "gamma_regularizer": null, "beta_constraint": null}, "class_name": "BatchNormalization", "name": "inception_3a_3x3_bn1", "inbound_nodes": [[["inception_3a_3x3_conv1", 0, 0, {}]]]}, {"config": {"momentum": 0.99, "trainable": true, "name": "inception_3a_5x5_bn1", "center": true, "axis": 1, "beta_initializer": {"config": {}, "class_name": "Zeros"}, "beta_regularizer": null, "moving_variance_initializer": {"config": {}, "class_name": "Ones"}, "epsilon": 1e-05, "scale": true, "gamma_constraint": null, "moving_mean_initializer": {"config": {}, "class_name": "Zeros"}, "gamma_initializer": {"config": {}, "class_name": "Ones"}, "gamma_regularizer": null, "beta_constraint": null}, "class_name": "BatchNormalization", "name": "inception_3a_5x5_bn1", "inbound_nodes": [[["inception_3a_5x5_conv1", 0, 0, {}]]]}, {"config": {"activation": "relu", "trainable": true, "name": "activation_78"}, "class_name": "Activation", "name": "activation_78", "inbound_nodes": [[["inception_3a_3x3_bn1", 0, 0, {}]]]}, {"config": {"activation": "relu", "trainable": true, "name": "activation_80"}, "class_name": "Activation", "name": "activation_80", "inbound_nodes": [[["inception_3a_5x5_bn1", 0, 0, {}]]]}, {"config": {"trainable": true, "name": "max_pooling2d_15", "padding": "valid", "data_format": "channels_first", "pool_size": [3, 3], "strides": [2, 2]}, "class_name": "MaxPooling2D", "name": "max_pooling2d_15", "inbound_nodes": [[["max_pooling2d_14", 0, 0, {}]]]}, {"config": {"trainable": true, "name": "zero_padding2d_51", "padding": [[1, 1], [1, 1]], "data_format": "channels_first"}, "class_name": "ZeroPadding2D", "name": "zero_padding2d_51", "inbound_nodes": [[["activation_78", 0, 0, {}]]]}, {"config": {"trainable": true, "name": "zero_padding2d_52", "padding": [[2, 2], [2, 2]], "data_format": "channels_first"}, "class_name": "ZeroPadding2D", "name": "zero_padding2d_52", "inbound_nodes": [[["activation_80", 0, 0, {}]]]}, {"config": {"trainable": true, "name": "inception_3a_pool_conv", "filters": 32, "kernel_constraint": null, "dilation_rate": [1, 1], "kernel_regularizer": null, "bias_initializer": {"config": {}, "class_name": "Zeros"}, "activation": "linear", "bias_regularizer": null, "strides": [1, 1], "kernel_initializer": {"config": {"scale": 1.0, "mode": "fan_avg", "seed": null, "distribution": "uniform"}, "class_name": "VarianceScaling"}, "padding": "valid", "data_format": "channels_first", "activity_regularizer": null, "bias_constraint": null, "use_bias": true, "kernel_size": [1, 1]}, "class_name": "Conv2D", "name": "inception_3a_pool_conv", "inbound_nodes": [[["max_pooling2d_15", 0, 0, {}]]]}, {"config": {"trainable": true, "name": "inception_3a_3x3_conv2", "filters": 128, "kernel_constraint": null, "dilation_rate": [1, 1], "kernel_regularizer": null, "bias_initializer": {"config": {}, "class_name": "Zeros"}, "activation": "linear", "bias_regularizer": null, "strides": [1, 1], "kernel_initializer": {"config": {"scale": 1.0, "mode": "fan_avg", "seed": null, "distribution": "uniform"}, "class_name": "VarianceScaling"}, "padding": "valid", "data_format": "channels_first", "activity_regularizer": null, "bias_constraint": null, "use_bias": true, "kernel_size": [3, 3]}, "class_name": "Conv2D", "name": "inception_3a_3x3_conv2", "inbound_nodes": [[["zero_padding2d_51", 0, 0, {}]]]}, {"config": {"trainable": true, "name": "inception_3a_5x5_conv2", "filters": 32, "kernel_constraint": null, "dilation_rate": [1, 1], "kernel_regularizer": null, "bias_initializer": {"config": {}, "class_name": "Zeros"}, "activation": "linear", "bias_regularizer": null, "strides": [1, 1], "kernel_initializer": {"config": {"scale": 1.0, "mode": "fan_avg", "seed": null, "distribution": "uniform"}, "class_name": "VarianceScaling"}, "padding": "valid", "data_format": "channels_first", "activity_regularizer": null, "bias_constraint": null, "use_bias": true, "kernel_size": [5, 5]}, "class_name": "Conv2D", "name": "inception_3a_5x5_conv2", "inbound_nodes": [[["zero_padding2d_52", 0, 0, {}]]]}, {"config": {"momentum": 0.99, "trainable": true, "name": "inception_3a_pool_bn", "center": true, "axis": 1, "beta_initializer": {"config": {}, "class_name": "Zeros"}, "beta_regularizer": null, "moving_variance_initializer": {"config": {}, "class_name": "Ones"}, "epsilon": 1e-05, "scale": true, "gamma_constraint": null, "moving_mean_initializer": {"config": {}, "class_name": "Zeros"}, "gamma_initializer": {"config": {}, "class_name": "Ones"}, "gamma_regularizer": null, "beta_constraint": null}, "class_name": "BatchNormalization", "name": "inception_3a_pool_bn", "inbound_nodes": [[["inception_3a_pool_conv", 0, 0, {}]]]}, {"config": {"trainable": true, "name": "inception_3a_1x1_conv", "filters": 64, "kernel_constraint": null, "dilation_rate": [1, 1], "kernel_regularizer": null, "bias_initializer": {"config": {}, "class_name": "Zeros"}, "activation": "linear", "bias_regularizer": null, "strides": [1, 1], "kernel_initializer": {"config": {"scale": 1.0, "mode": "fan_avg", "seed": null, "distribution": "uniform"}, "class_name": "VarianceScaling"}, "padding": "valid", "data_format": "channels_first", "activity_regularizer": null, "bias_constraint": null, "use_bias": true, "kernel_size": [1, 1]}, "class_name": "Conv2D", "name": "inception_3a_1x1_conv", "inbound_nodes": [[["max_pooling2d_14", 0, 0, {}]]]}, {"config": {"momentum": 0.99, "trainable": true, "name": "inception_3a_3x3_bn2", "center": true, "axis": 1, "beta_initializer": {"config": {}, "class_name": "Zeros"}, "beta_regularizer": null, "moving_variance_initializer": {"config": {}, "class_name": "Ones"}, "epsilon": 1e-05, "scale": true, "gamma_constraint": null, "moving_mean_initializer": {"config": {}, "class_name": "Zeros"}, "gamma_initializer": {"config": {}, "class_name": "Ones"}, "gamma_regularizer": null, "beta_constraint": null}, "class_name": "BatchNormalization", "name": "inception_3a_3x3_bn2", "inbound_nodes": [[["inception_3a_3x3_conv2", 0, 0, {}]]]}, {"config": {"momentum": 0.99, "trainable": true, "name": "inception_3a_5x5_bn2", "center": true, "axis": 1, "beta_initializer": {"config": {}, "class_name": "Zeros"}, "beta_regularizer": null, "moving_variance_initializer": {"config": {}, "class_name": "Ones"}, "epsilon": 1e-05, "scale": true, "gamma_constraint": null, "moving_mean_initializer": {"config": {}, "class_name": "Zeros"}, "gamma_initializer": {"config": {}, "class_name": "Ones"}, "gamma_regularizer": null, "beta_constraint": null}, "class_name": "BatchNormalization", "name": "inception_3a_5x5_bn2", "inbound_nodes": [[["inception_3a_5x5_conv2", 0, 0, {}]]]}, {"config": {"activation": "relu", "trainable": true, "name": "activation_82"}, "class_name": "Activation", "name": "activation_82", "inbound_nodes": [[["inception_3a_pool_bn", 0, 0, {}]]]}, {"config": {"momentum": 0.99, "trainable": true, "name": "inception_3a_1x1_bn", "center": true, "axis": 1, "beta_initializer": {"config": {}, "class_name": "Zeros"}, "beta_regularizer": null, "moving_variance_initializer": {"config": {}, "class_name": "Ones"}, "epsilon": 1e-05, "scale": true, "gamma_constraint": null, "moving_mean_initializer": {"config": {}, "class_name": "Zeros"}, "gamma_initializer": {"config": {}, "class_name": "Ones"}, "gamma_regularizer": null, "beta_constraint": null}, "class_name": "BatchNormalization", "name": "inception_3a_1x1_bn", "inbound_nodes": [[["inception_3a_1x1_conv", 0, 0, {}]]]}, {"config": {"activation": "relu", "trainable": true, "name": "activation_79"}, "class_name": "Activation", "name": "activation_79", "inbound_nodes": [[["inception_3a_3x3_bn2", 0, 0, {}]]]}, {"config": {"activation": "relu", "trainable": true, "name": "activation_81"}, "class_name": "Activation", "name": "activation_81", "inbound_nodes": [[["inception_3a_5x5_bn2", 0, 0, {}]]]}, {"config": {"trainable": true, "name": "zero_padding2d_53", "padding": [[3, 4], [3, 4]], "data_format": "channels_first"}, "class_name": "ZeroPadding2D", "name": "zero_padding2d_53", "inbound_nodes": [[["activation_82", 0, 0, {}]]]}, {"config": {"activation": "relu", "trainable": true, "name": "activation_83"}, "class_name": "Activation", "name": "activation_83", "inbound_nodes": [[["inception_3a_1x1_bn", 0, 0, {}]]]}, {"config": {"trainable": true, "name": "concatenate_15", "axis": 1}, "class_name": "Concatenate", "name": "concatenate_15", "inbound_nodes": [[["activation_79", 0, 0, {}], ["activation_81", 0, 0, {}], ["zero_padding2d_53", 0, 0, {}], ["activation_83", 0, 0, {}]]]}, {"config": {"trainable": true, "name": "inception_3b_3x3_conv1", "filters": 96, "kernel_constraint": null, "dilation_rate": [1, 1], "kernel_regularizer": null, "bias_initializer": {"config": {}, "class_name": "Zeros"}, "activation": "linear", "bias_regularizer": null, "strides": [1, 1], "kernel_initializer": {"config": {"scale": 1.0, "mode": "fan_avg", "seed": null, "distribution": "uniform"}, "class_name": "VarianceScaling"}, "padding": "valid", "data_format": "channels_first", "activity_regularizer": null, "bias_constraint": null, "use_bias": true, "kernel_size": [1, 1]}, "class_name": "Conv2D", "name": "inception_3b_3x3_conv1", "inbound_nodes": [[["concatenate_15", 0, 0, {}]]]}, {"config": {"trainable": true, "name": "inception_3b_5x5_conv1", "filters": 32, "kernel_constraint": null, "dilation_rate": [1, 1], "kernel_regularizer": null, "bias_initializer": {"config": {}, "class_name": "Zeros"}, "activation": "linear", "bias_regularizer": null, "strides": [1, 1], "kernel_initializer": {"config": {"scale": 1.0, "mode": "fan_avg", "seed": null, "distribution": "uniform"}, "class_name": "VarianceScaling"}, "padding": "valid", "data_format": "channels_first", "activity_regularizer": null, "bias_constraint": null, "use_bias": true, "kernel_size": [1, 1]}, "class_name": "Conv2D", "name": "inception_3b_5x5_conv1", "inbound_nodes": [[["concatenate_15", 0, 0, {}]]]}, {"config": {"momentum": 0.99, "trainable": true, "name": "inception_3b_3x3_bn1", "center": true, "axis": 1, "beta_initializer": {"config": {}, "class_name": "Zeros"}, "beta_regularizer": null, "moving_variance_initializer": {"config": {}, "class_name": "Ones"}, "epsilon": 1e-05, "scale": true, "gamma_constraint": null, "moving_mean_initializer": {"config": {}, "class_name": "Zeros"}, "gamma_initializer": {"config": {}, "class_name": "Ones"}, "gamma_regularizer": null, "beta_constraint": null}, "class_name": "BatchNormalization", "name": "inception_3b_3x3_bn1", "inbound_nodes": [[["inception_3b_3x3_conv1", 0, 0, {}]]]}, {"config": {"momentum": 0.99, "trainable": true, "name": "inception_3b_5x5_bn1", "center": true, "axis": 1, "beta_initializer": {"config": {}, "class_name": "Zeros"}, "beta_regularizer": null, "moving_variance_initializer": {"config": {}, "class_name": "Ones"}, "epsilon": 1e-05, "scale": true, "gamma_constraint": null, "moving_mean_initializer": {"config": {}, "class_name": "Zeros"}, "gamma_initializer": {"config": {}, "class_name": "Ones"}, "gamma_regularizer": null, "beta_constraint": null}, "class_name": "BatchNormalization", "name": "inception_3b_5x5_bn1", "inbound_nodes": [[["inception_3b_5x5_conv1", 0, 0, {}]]]}, {"config": {"activation": "relu", "trainable": true, "name": "activation_84"}, "class_name": "Activation", "name": "activation_84", "inbound_nodes": [[["inception_3b_3x3_bn1", 0, 0, {}]]]}, {"config": {"activation": "relu", "trainable": true, "name": "activation_86"}, "class_name": "Activation", "name": "activation_86", "inbound_nodes": [[["inception_3b_5x5_bn1", 0, 0, {}]]]}, {"config": {"trainable": true, "name": "average_pooling2d_9", "padding": "valid", "data_format": "channels_first", "pool_size": [3, 3], "strides": [3, 3]}, "class_name": "AveragePooling2D", "name": "average_pooling2d_9", "inbound_nodes": [[["concatenate_15", 0, 0, {}]]]}, {"config": {"trainable": true, "name": "zero_padding2d_54", "padding": [[1, 1], [1, 1]], "data_format": "channels_first"}, "class_name": "ZeroPadding2D", "name": "zero_padding2d_54", "inbound_nodes": [[["activation_84", 0, 0, {}]]]}, {"config": {"trainable": true, "name": "zero_padding2d_55", "padding": [[2, 2], [2, 2]], "data_format": "channels_first"}, "class_name": "ZeroPadding2D", "name": "zero_padding2d_55", "inbound_nodes": [[["activation_86", 0, 0, {}]]]}, {"config": {"trainable": true, "name": "inception_3b_pool_conv", "filters": 64, "kernel_constraint": null, "dilation_rate": [1, 1], "kernel_regularizer": null, "bias_initializer": {"config": {}, "class_name": "Zeros"}, "activation": "linear", "bias_regularizer": null, "strides": [1, 1], "kernel_initializer": {"config": {"scale": 1.0, "mode": "fan_avg", "seed": null, "distribution": "uniform"}, "class_name": "VarianceScaling"}, "padding": "valid", "data_format": "channels_first", "activity_regularizer": null, "bias_constraint": null, "use_bias": true, "kernel_size": [1, 1]}, "class_name": "Conv2D", "name": "inception_3b_pool_conv", "inbound_nodes": [[["average_pooling2d_9", 0, 0, {}]]]}, {"config": {"trainable": true, "name": "inception_3b_3x3_conv2", "filters": 128, "kernel_constraint": null, "dilation_rate": [1, 1], "kernel_regularizer": null, "bias_initializer": {"config": {}, "class_name": "Zeros"}, "activation": "linear", "bias_regularizer": null, "strides": [1, 1], "kernel_initializer": {"config": {"scale": 1.0, "mode": "fan_avg", "seed": null, "distribution": "uniform"}, "class_name": "VarianceScaling"}, "padding": "valid", "data_format": "channels_first", "activity_regularizer": null, "bias_constraint": null, "use_bias": true, "kernel_size": [3, 3]}, "class_name": "Conv2D", "name": "inception_3b_3x3_conv2", "inbound_nodes": [[["zero_padding2d_54", 0, 0, {}]]]}, {"config": {"trainable": true, "name": "inception_3b_5x5_conv2", "filters": 64, "kernel_constraint": null, "dilation_rate": [1, 1], "kernel_regularizer": null, "bias_initializer": {"config": {}, "class_name": "Zeros"}, "activation": "linear", "bias_regularizer": null, "strides": [1, 1], "kernel_initializer": {"config": {"scale": 1.0, "mode": "fan_avg", "seed": null, "distribution": "uniform"}, "class_name": "VarianceScaling"}, "padding": "valid", "data_format": "channels_first", "activity_regularizer": null, "bias_constraint": null, "use_bias": true, "kernel_size": [5, 5]}, "class_name": "Conv2D", "name": "inception_3b_5x5_conv2", "inbound_nodes": [[["zero_padding2d_55", 0, 0, {}]]]}, {"config": {"momentum": 0.99, "trainable": true, "name": "inception_3b_pool_bn", "center": true, "axis": 1, "beta_initializer": {"config": {}, "class_name": "Zeros"}, "beta_regularizer": null, "moving_variance_initializer": {"config": {}, "class_name": "Ones"}, "epsilon": 1e-05, "scale": true, "gamma_constraint": null, "moving_mean_initializer": {"config": {}, "class_name": "Zeros"}, "gamma_initializer": {"config": {}, "class_name": "Ones"}, "gamma_regularizer": null, "beta_constraint": null}, "class_name": "BatchNormalization", "name": "inception_3b_pool_bn", "inbound_nodes": [[["inception_3b_pool_conv", 0, 0, {}]]]}, {"config": {"trainable": true, "name": "inception_3b_1x1_conv", "filters": 64, "kernel_constraint": null, "dilation_rate": [1, 1], "kernel_regularizer": null, "bias_initializer": {"config": {}, "class_name": "Zeros"}, "activation": "linear", "bias_regularizer": null, "strides": [1, 1], "kernel_initializer": {"config": {"scale": 1.0, "mode": "fan_avg", "seed": null, "distribution": "uniform"}, "class_name": "VarianceScaling"}, "padding": "valid", "data_format": "channels_first", "activity_regularizer": null, "bias_constraint": null, "use_bias": true, "kernel_size": [1, 1]}, "class_name": "Conv2D", "name": "inception_3b_1x1_conv", "inbound_nodes": [[["concatenate_15", 0, 0, {}]]]}, {"config": {"momentum": 0.99, "trainable": true, "name": "inception_3b_3x3_bn2", "center": true, "axis": 1, "beta_initializer": {"config": {}, "class_name": "Zeros"}, "beta_regularizer": null, "moving_variance_initializer": {"config": {}, "class_name": "Ones"}, "epsilon": 1e-05, "scale": true, "gamma_constraint": null, "moving_mean_initializer": {"config": {}, "class_name": "Zeros"}, "gamma_initializer": {"config": {}, "class_name": "Ones"}, "gamma_regularizer": null, "beta_constraint": null}, "class_name": "BatchNormalization", "name": "inception_3b_3x3_bn2", "inbound_nodes": [[["inception_3b_3x3_conv2", 0, 0, {}]]]}, {"config": {"momentum": 0.99, "trainable": true, "name": "inception_3b_5x5_bn2", "center": true, "axis": 1, "beta_initializer": {"config": {}, "class_name": "Zeros"}, "beta_regularizer": null, "moving_variance_initializer": {"config": {}, "class_name": "Ones"}, "epsilon": 1e-05, "scale": true, "gamma_constraint": null, "moving_mean_initializer": {"config": {}, "class_name": "Zeros"}, "gamma_initializer": {"config": {}, "class_name": "Ones"}, "gamma_regularizer": null, "beta_constraint": null}, "class_name": "BatchNormalization", "name": "inception_3b_5x5_bn2", "inbound_nodes": [[["inception_3b_5x5_conv2", 0, 0, {}]]]}, {"config": {"activation": "relu", "trainable": true, "name": "activation_88"}, "class_name": "Activation", "name": "activation_88", "inbound_nodes": [[["inception_3b_pool_bn", 0, 0, {}]]]}, {"config": {"momentum": 0.99, "trainable": true, "name": "inception_3b_1x1_bn", "center": true, "axis": 1, "beta_initializer": {"config": {}, "class_name": "Zeros"}, "beta_regularizer": null, "moving_variance_initializer": {"config": {}, "class_name": "Ones"}, "epsilon": 1e-05, "scale": true, "gamma_constraint": null, "moving_mean_initializer": {"config": {}, "class_name": "Zeros"}, "gamma_initializer": {"config": {}, "class_name": "Ones"}, "gamma_regularizer": null, "beta_constraint": null}, "class_name": "BatchNormalization", "name": "inception_3b_1x1_bn", "inbound_nodes": [[["inception_3b_1x1_conv", 0, 0, {}]]]}, {"config": {"activation": "relu", "trainable": true, "name": "activation_85"}, "class_name": "Activation", "name": "activation_85", "inbound_nodes": [[["inception_3b_3x3_bn2", 0, 0, {}]]]}, {"config": {"activation": "relu", "trainable": true, "name": "activation_87"}, "class_name": "Activation", "name": "activation_87", "inbound_nodes": [[["inception_3b_5x5_bn2", 0, 0, {}]]]}, {"config": {"trainable": true, "name": "zero_padding2d_56", "padding": [[4, 4], [4, 4]], "data_format": "channels_first"}, "class_name": "ZeroPadding2D", "name": "zero_padding2d_56", "inbound_nodes": [[["activation_88", 0, 0, {}]]]}, {"config": {"activation": "relu", "trainable": true, "name": "activation_89"}, "class_name": "Activation", "name": "activation_89", "inbound_nodes": [[["inception_3b_1x1_bn", 0, 0, {}]]]}, {"config": {"trainable": true, "name": "concatenate_16", "axis": 1}, "class_name": "Concatenate", "name": "concatenate_16", "inbound_nodes": [[["activation_85", 0, 0, {}], ["activation_87", 0, 0, {}], ["zero_padding2d_56", 0, 0, {}], ["activation_89", 0, 0, {}]]]}, {"config": {"trainable": true, "name": "inception_3c_3x3_conv1", "filters": 128, "kernel_constraint": null, "dilation_rate": [1, 1], "kernel_regularizer": null, "bias_initializer": {"config": {}, "class_name": "Zeros"}, "activation": "linear", "bias_regularizer": null, "strides": [1, 1], "kernel_initializer": {"config": {"scale": 1.0, "mode": "fan_avg", "seed": null, "distribution": "uniform"}, "class_name": "VarianceScaling"}, "padding": "valid", "data_format": "channels_first", "activity_regularizer": null, "bias_constraint": null, "use_bias": true, "kernel_size": [1, 1]}, "class_name": "Conv2D", "name": "inception_3c_3x3_conv1", "inbound_nodes": [[["concatenate_16", 0, 0, {}]]]}, {"config": {"trainable": true, "name": "inception_3c_5x5_conv1", "filters": 32, "kernel_constraint": null, "dilation_rate": [1, 1], "kernel_regularizer": null, "bias_initializer": {"config": {}, "class_name": "Zeros"}, "activation": "linear", "bias_regularizer": null, "strides": [1, 1], "kernel_initializer": {"config": {"scale": 1.0, "mode": "fan_avg", "seed": null, "distribution": "uniform"}, "class_name": "VarianceScaling"}, "padding": "valid", "data_format": "channels_first", "activity_regularizer": null, "bias_constraint": null, "use_bias": true, "kernel_size": [1, 1]}, "class_name": "Conv2D", "name": "inception_3c_5x5_conv1", "inbound_nodes": [[["concatenate_16", 0, 0, {}]]]}, {"config": {"momentum": 0.99, "trainable": true, "name": "inception_3c_3x3_bn1", "center": true, "axis": 1, "beta_initializer": {"config": {}, "class_name": "Zeros"}, "beta_regularizer": null, "moving_variance_initializer": {"config": {}, "class_name": "Ones"}, "epsilon": 1e-05, "scale": true, "gamma_constraint": null, "moving_mean_initializer": {"config": {}, "class_name": "Zeros"}, "gamma_initializer": {"config": {}, "class_name": "Ones"}, "gamma_regularizer": null, "beta_constraint": null}, "class_name": "BatchNormalization", "name": "inception_3c_3x3_bn1", "inbound_nodes": [[["inception_3c_3x3_conv1", 0, 0, {}]]]}, {"config": {"momentum": 0.99, "trainable": true, "name": "inception_3c_5x5_bn1", "center": true, "axis": 1, "beta_initializer": {"config": {}, "class_name": "Zeros"}, "beta_regularizer": null, "moving_variance_initializer": {"config": {}, "class_name": "Ones"}, "epsilon": 1e-05, "scale": true, "gamma_constraint": null, "moving_mean_initializer": {"config": {}, "class_name": "Zeros"}, "gamma_initializer": {"config": {}, "class_name": "Ones"}, "gamma_regularizer": null, "beta_constraint": null}, "class_name": "BatchNormalization", "name": "inception_3c_5x5_bn1", "inbound_nodes": [[["inception_3c_5x5_conv1", 0, 0, {}]]]}, {"config": {"activation": "relu", "trainable": true, "name": "activation_90"}, "class_name": "Activation", "name": "activation_90", "inbound_nodes": [[["inception_3c_3x3_bn1", 0, 0, {}]]]}, {"config": {"activation": "relu", "trainable": true, "name": "activation_92"}, "class_name": "Activation", "name": "activation_92", "inbound_nodes": [[["inception_3c_5x5_bn1", 0, 0, {}]]]}, {"config": {"trainable": true, "name": "zero_padding2d_57", "padding": [[1, 1], [1, 1]], "data_format": "channels_first"}, "class_name": "ZeroPadding2D", "name": "zero_padding2d_57", "inbound_nodes": [[["activation_90", 0, 0, {}]]]}, {"config": {"trainable": true, "name": "zero_padding2d_58", "padding": [[2, 2], [2, 2]], "data_format": "channels_first"}, "class_name": "ZeroPadding2D", "name": "zero_padding2d_58", "inbound_nodes": [[["activation_92", 0, 0, {}]]]}, {"config": {"trainable": true, "name": "inception_3c_3x3_conv2", "filters": 256, "kernel_constraint": null, "dilation_rate": [1, 1], "kernel_regularizer": null, "bias_initializer": {"config": {}, "class_name": "Zeros"}, "activation": "linear", "bias_regularizer": null, "strides": [2, 2], "kernel_initializer": {"config": {"scale": 1.0, "mode": "fan_avg", "seed": null, "distribution": "uniform"}, "class_name": "VarianceScaling"}, "padding": "valid", "data_format": "channels_first", "activity_regularizer": null, "bias_constraint": null, "use_bias": true, "kernel_size": [3, 3]}, "class_name": "Conv2D", "name": "inception_3c_3x3_conv2", "inbound_nodes": [[["zero_padding2d_57", 0, 0, {}]]]}, {"config": {"trainable": true, "name": "inception_3c_5x5_conv2", "filters": 64, "kernel_constraint": null, "dilation_rate": [1, 1], "kernel_regularizer": null, "bias_initializer": {"config": {}, "class_name": "Zeros"}, "activation": "linear", "bias_regularizer": null, "strides": [2, 2], "kernel_initializer": {"config": {"scale": 1.0, "mode": "fan_avg", "seed": null, "distribution": "uniform"}, "class_name": "VarianceScaling"}, "padding": "valid", "data_format": "channels_first", "activity_regularizer": null, "bias_constraint": null, "use_bias": true, "kernel_size": [5, 5]}, "class_name": "Conv2D", "name": "inception_3c_5x5_conv2", "inbound_nodes": [[["zero_padding2d_58", 0, 0, {}]]]}, {"config": {"momentum": 0.99, "trainable": true, "name": "inception_3c_3x3_bn2", "center": true, "axis": 1, "beta_initializer": {"config": {}, "class_name": "Zeros"}, "beta_regularizer": null, "moving_variance_initializer": {"config": {}, "class_name": "Ones"}, "epsilon": 1e-05, "scale": true, "gamma_constraint": null, "moving_mean_initializer": {"config": {}, "class_name": "Zeros"}, "gamma_initializer": {"config": {}, "class_name": "Ones"}, "gamma_regularizer": null, "beta_constraint": null}, "class_name": "BatchNormalization", "name": "inception_3c_3x3_bn2", "inbound_nodes": [[["inception_3c_3x3_conv2", 0, 0, {}]]]}, {"config": {"momentum": 0.99, "trainable": true, "name": "inception_3c_5x5_bn2", "center": true, "axis": 1, "beta_initializer": {"config": {}, "class_name": "Zeros"}, "beta_regularizer": null, "moving_variance_initializer": {"config": {}, "class_name": "Ones"}, "epsilon": 1e-05, "scale": true, "gamma_constraint": null, "moving_mean_initializer": {"config": {}, "class_name": "Zeros"}, "gamma_initializer": {"config": {}, "class_name": "Ones"}, "gamma_regularizer": null, "beta_constraint": null}, "class_name": "BatchNormalization", "name": "inception_3c_5x5_bn2", "inbound_nodes": [[["inception_3c_5x5_conv2", 0, 0, {}]]]}, {"config": {"trainable": true, "name": "max_pooling2d_16", "padding": "valid", "data_format": "channels_first", "pool_size": [3, 3], "strides": [2, 2]}, "class_name": "MaxPooling2D", "name": "max_pooling2d_16", "inbound_nodes": [[["concatenate_16", 0, 0, {}]]]}, {"config": {"activation": "relu", "trainable": true, "name": "activation_91"}, "class_name": "Activation", "name": "activation_91", "inbound_nodes": [[["inception_3c_3x3_bn2", 0, 0, {}]]]}, {"config": {"activation": "relu", "trainable": true, "name": "activation_93"}, "class_name": "Activation", "name": "activation_93", "inbound_nodes": [[["inception_3c_5x5_bn2", 0, 0, {}]]]}, {"config": {"trainable": true, "name": "zero_padding2d_59", "padding": [[0, 1], [0, 1]], "data_format": "channels_first"}, "class_name": "ZeroPadding2D", "name": "zero_padding2d_59", "inbound_nodes": [[["max_pooling2d_16", 0, 0, {}]]]}, {"config": {"trainable": true, "name": "concatenate_17", "axis": 1}, "class_name": "Concatenate", "name": "concatenate_17", "inbound_nodes": [[["activation_91", 0, 0, {}], ["activation_93", 0, 0, {}], ["zero_padding2d_59", 0, 0, {}]]]}, {"config": {"trainable": true, "name": "inception_4a_3x3_conv1", "filters": 96, "kernel_constraint": null, "dilation_rate": [1, 1], "kernel_regularizer": null, "bias_initializer": {"config": {}, "class_name": "Zeros"}, "activation": "linear", "bias_regularizer": null, "strides": [1, 1], "kernel_initializer": {"config": {"scale": 1.0, "mode": "fan_avg", "seed": null, "distribution": "uniform"}, "class_name": "VarianceScaling"}, "padding": "valid", "data_format": "channels_first", "activity_regularizer": null, "bias_constraint": null, "use_bias": true, "kernel_size": [1, 1]}, "class_name": "Conv2D", "name": "inception_4a_3x3_conv1", "inbound_nodes": [[["concatenate_17", 0, 0, {}]]]}, {"config": {"trainable": true, "name": "inception_4a_5x5_conv1", "filters": 32, "kernel_constraint": null, "dilation_rate": [1, 1], "kernel_regularizer": null, "bias_initializer": {"config": {}, "class_name": "Zeros"}, "activation": "linear", "bias_regularizer": null, "strides": [1, 1], "kernel_initializer": {"config": {"scale": 1.0, "mode": "fan_avg", "seed": null, "distribution": "uniform"}, "class_name": "VarianceScaling"}, "padding": "valid", "data_format": "channels_first", "activity_regularizer": null, "bias_constraint": null, "use_bias": true, "kernel_size": [1, 1]}, "class_name": "Conv2D", "name": "inception_4a_5x5_conv1", "inbound_nodes": [[["concatenate_17", 0, 0, {}]]]}, {"config": {"momentum": 0.99, "trainable": true, "name": "inception_4a_3x3_bn1", "center": true, "axis": 1, "beta_initializer": {"config": {}, "class_name": "Zeros"}, "beta_regularizer": null, "moving_variance_initializer": {"config": {}, "class_name": "Ones"}, "epsilon": 1e-05, "scale": true, "gamma_constraint": null, "moving_mean_initializer": {"config": {}, "class_name": "Zeros"}, "gamma_initializer": {"config": {}, "class_name": "Ones"}, "gamma_regularizer": null, "beta_constraint": null}, "class_name": "BatchNormalization", "name": "inception_4a_3x3_bn1", "inbound_nodes": [[["inception_4a_3x3_conv1", 0, 0, {}]]]}, {"config": {"momentum": 0.99, "trainable": true, "name": "inception_4a_5x5_bn1", "center": true, "axis": 1, "beta_initializer": {"config": {}, "class_name": "Zeros"}, "beta_regularizer": null, "moving_variance_initializer": {"config": {}, "class_name": "Ones"}, "epsilon": 1e-05, "scale": true, "gamma_constraint": null, "moving_mean_initializer": {"config": {}, "class_name": "Zeros"}, "gamma_initializer": {"config": {}, "class_name": "Ones"}, "gamma_regularizer": null, "beta_constraint": null}, "class_name": "BatchNormalization", "name": "inception_4a_5x5_bn1", "inbound_nodes": [[["inception_4a_5x5_conv1", 0, 0, {}]]]}, {"config": {"activation": "relu", "trainable": true, "name": "activation_94"}, "class_name": "Activation", "name": "activation_94", "inbound_nodes": [[["inception_4a_3x3_bn1", 0, 0, {}]]]}, {"config": {"activation": "relu", "trainable": true, "name": "activation_96"}, "class_name": "Activation", "name": "activation_96", "inbound_nodes": [[["inception_4a_5x5_bn1", 0, 0, {}]]]}, {"config": {"trainable": true, "name": "average_pooling2d_10", "padding": "valid", "data_format": "channels_first", "pool_size": [3, 3], "strides": [3, 3]}, "class_name": "AveragePooling2D", "name": "average_pooling2d_10", "inbound_nodes": [[["concatenate_17", 0, 0, {}]]]}, {"config": {"trainable": true, "name": "zero_padding2d_60", "padding": [[1, 1], [1, 1]], "data_format": "channels_first"}, "class_name": "ZeroPadding2D", "name": "zero_padding2d_60", "inbound_nodes": [[["activation_94", 0, 0, {}]]]}, {"config": {"trainable": true, "name": "zero_padding2d_61", "padding": [[2, 2], [2, 2]], "data_format": "channels_first"}, "class_name": "ZeroPadding2D", "name": "zero_padding2d_61", "inbound_nodes": [[["activation_96", 0, 0, {}]]]}, {"config": {"trainable": true, "name": "inception_4a_pool_conv", "filters": 128, "kernel_constraint": null, "dilation_rate": [1, 1], "kernel_regularizer": null, "bias_initializer": {"config": {}, "class_name": "Zeros"}, "activation": "linear", "bias_regularizer": null, "strides": [1, 1], "kernel_initializer": {"config": {"scale": 1.0, "mode": "fan_avg", "seed": null, "distribution": "uniform"}, "class_name": "VarianceScaling"}, "padding": "valid", "data_format": "channels_first", "activity_regularizer": null, "bias_constraint": null, "use_bias": true, "kernel_size": [1, 1]}, "class_name": "Conv2D", "name": "inception_4a_pool_conv", "inbound_nodes": [[["average_pooling2d_10", 0, 0, {}]]]}, {"config": {"trainable": true, "name": "inception_4a_3x3_conv2", "filters": 192, "kernel_constraint": null, "dilation_rate": [1, 1], "kernel_regularizer": null, "bias_initializer": {"config": {}, "class_name": "Zeros"}, "activation": "linear", "bias_regularizer": null, "strides": [1, 1], "kernel_initializer": {"config": {"scale": 1.0, "mode": "fan_avg", "seed": null, "distribution": "uniform"}, "class_name": "VarianceScaling"}, "padding": "valid", "data_format": "channels_first", "activity_regularizer": null, "bias_constraint": null, "use_bias": true, "kernel_size": [3, 3]}, "class_name": "Conv2D", "name": "inception_4a_3x3_conv2", "inbound_nodes": [[["zero_padding2d_60", 0, 0, {}]]]}, {"config": {"trainable": true, "name": "inception_4a_5x5_conv2", "filters": 64, "kernel_constraint": null, "dilation_rate": [1, 1], "kernel_regularizer": null, "bias_initializer": {"config": {}, "class_name": "Zeros"}, "activation": "linear", "bias_regularizer": null, "strides": [1, 1], "kernel_initializer": {"config": {"scale": 1.0, "mode": "fan_avg", "seed": null, "distribution": "uniform"}, "class_name": "VarianceScaling"}, "padding": "valid", "data_format": "channels_first", "activity_regularizer": null, "bias_constraint": null, "use_bias": true, "kernel_size": [5, 5]}, "class_name": "Conv2D", "name": "inception_4a_5x5_conv2", "inbound_nodes": [[["zero_padding2d_61", 0, 0, {}]]]}, {"config": {"momentum": 0.99, "trainable": true, "name": "inception_4a_pool_bn", "center": true, "axis": 1, "beta_initializer": {"config": {}, "class_name": "Zeros"}, "beta_regularizer": null, "moving_variance_initializer": {"config": {}, "class_name": "Ones"}, "epsilon": 1e-05, "scale": true, "gamma_constraint": null, "moving_mean_initializer": {"config": {}, "class_name": "Zeros"}, "gamma_initializer": {"config": {}, "class_name": "Ones"}, "gamma_regularizer": null, "beta_constraint": null}, "class_name": "BatchNormalization", "name": "inception_4a_pool_bn", "inbound_nodes": [[["inception_4a_pool_conv", 0, 0, {}]]]}, {"config": {"trainable": true, "name": "inception_4a_1x1_conv", "filters": 256, "kernel_constraint": null, "dilation_rate": [1, 1], "kernel_regularizer": null, "bias_initializer": {"config": {}, "class_name": "Zeros"}, "activation": "linear", "bias_regularizer": null, "strides": [1, 1], "kernel_initializer": {"config": {"scale": 1.0, "mode": "fan_avg", "seed": null, "distribution": "uniform"}, "class_name": "VarianceScaling"}, "padding": "valid", "data_format": "channels_first", "activity_regularizer": null, "bias_constraint": null, "use_bias": true, "kernel_size": [1, 1]}, "class_name": "Conv2D", "name": "inception_4a_1x1_conv", "inbound_nodes": [[["concatenate_17", 0, 0, {}]]]}, {"config": {"momentum": 0.99, "trainable": true, "name": "inception_4a_3x3_bn2", "center": true, "axis": 1, "beta_initializer": {"config": {}, "class_name": "Zeros"}, "beta_regularizer": null, "moving_variance_initializer": {"config": {}, "class_name": "Ones"}, "epsilon": 1e-05, "scale": true, "gamma_constraint": null, "moving_mean_initializer": {"config": {}, "class_name": "Zeros"}, "gamma_initializer": {"config": {}, "class_name": "Ones"}, "gamma_regularizer": null, "beta_constraint": null}, "class_name": "BatchNormalization", "name": "inception_4a_3x3_bn2", "inbound_nodes": [[["inception_4a_3x3_conv2", 0, 0, {}]]]}, {"config": {"momentum": 0.99, "trainable": true, "name": "inception_4a_5x5_bn2", "center": true, "axis": 1, "beta_initializer": {"config": {}, "class_name": "Zeros"}, "beta_regularizer": null, "moving_variance_initializer": {"config": {}, "class_name": "Ones"}, "epsilon": 1e-05, "scale": true, "gamma_constraint": null, "moving_mean_initializer": {"config": {}, "class_name": "Zeros"}, "gamma_initializer": {"config": {}, "class_name": "Ones"}, "gamma_regularizer": null, "beta_constraint": null}, "class_name": "BatchNormalization", "name": "inception_4a_5x5_bn2", "inbound_nodes": [[["inception_4a_5x5_conv2", 0, 0, {}]]]}, {"config": {"activation": "relu", "trainable": true, "name": "activation_98"}, "class_name": "Activation", "name": "activation_98", "inbound_nodes": [[["inception_4a_pool_bn", 0, 0, {}]]]}, {"config": {"momentum": 0.99, "trainable": true, "name": "inception_4a_1x1_bn", "center": true, "axis": 1, "beta_initializer": {"config": {}, "class_name": "Zeros"}, "beta_regularizer": null, "moving_variance_initializer": {"config": {}, "class_name": "Ones"}, "epsilon": 1e-05, "scale": true, "gamma_constraint": null, "moving_mean_initializer": {"config": {}, "class_name": "Zeros"}, "gamma_initializer": {"config": {}, "class_name": "Ones"}, "gamma_regularizer": null, "beta_constraint": null}, "class_name": "BatchNormalization", "name": "inception_4a_1x1_bn", "inbound_nodes": [[["inception_4a_1x1_conv", 0, 0, {}]]]}, {"config": {"activation": "relu", "trainable": true, "name": "activation_95"}, "class_name": "Activation", "name": "activation_95", "inbound_nodes": [[["inception_4a_3x3_bn2", 0, 0, {}]]]}, {"config": {"activation": "relu", "trainable": true, "name": "activation_97"}, "class_name": "Activation", "name": "activation_97", "inbound_nodes": [[["inception_4a_5x5_bn2", 0, 0, {}]]]}, {"config": {"trainable": true, "name": "zero_padding2d_62", "padding": [[2, 2], [2, 2]], "data_format": "channels_first"}, "class_name": "ZeroPadding2D", "name": "zero_padding2d_62", "inbound_nodes": [[["activation_98", 0, 0, {}]]]}, {"config": {"activation": "relu", "trainable": true, "name": "activation_99"}, "class_name": "Activation", "name": "activation_99", "inbound_nodes": [[["inception_4a_1x1_bn", 0, 0, {}]]]}, {"config": {"trainable": true, "name": "concatenate_18", "axis": 1}, "class_name": "Concatenate", "name": "concatenate_18", "inbound_nodes": [[["activation_95", 0, 0, {}], ["activation_97", 0, 0, {}], ["zero_padding2d_62", 0, 0, {}], ["activation_99", 0, 0, {}]]]}, {"config": {"trainable": true, "name": "inception_4e_3x3_conv1", "filters": 160, "kernel_constraint": null, "dilation_rate": [1, 1], "kernel_regularizer": null, "bias_initializer": {"config": {}, "class_name": "Zeros"}, "activation": "linear", "bias_regularizer": null, "strides": [1, 1], "kernel_initializer": {"config": {"scale": 1.0, "mode": "fan_avg", "seed": null, "distribution": "uniform"}, "class_name": "VarianceScaling"}, "padding": "valid", "data_format": "channels_first", "activity_regularizer": null, "bias_constraint": null, "use_bias": true, "kernel_size": [1, 1]}, "class_name": "Conv2D", "name": "inception_4e_3x3_conv1", "inbound_nodes": [[["concatenate_18", 0, 0, {}]]]}, {"config": {"trainable": true, "name": "inception_4e_5x5_conv1", "filters": 64, "kernel_constraint": null, "dilation_rate": [1, 1], "kernel_regularizer": null, "bias_initializer": {"config": {}, "class_name": "Zeros"}, "activation": "linear", "bias_regularizer": null, "strides": [1, 1], "kernel_initializer": {"config": {"scale": 1.0, "mode": "fan_avg", "seed": null, "distribution": "uniform"}, "class_name": "VarianceScaling"}, "padding": "valid", "data_format": "channels_first", "activity_regularizer": null, "bias_constraint": null, "use_bias": true, "kernel_size": [1, 1]}, "class_name": "Conv2D", "name": "inception_4e_5x5_conv1", "inbound_nodes": [[["concatenate_18", 0, 0, {}]]]}, {"config": {"momentum": 0.99, "trainable": true, "name": "inception_4e_3x3_bn1", "center": true, "axis": 1, "beta_initializer": {"config": {}, "class_name": "Zeros"}, "beta_regularizer": null, "moving_variance_initializer": {"config": {}, "class_name": "Ones"}, "epsilon": 1e-05, "scale": true, "gamma_constraint": null, "moving_mean_initializer": {"config": {}, "class_name": "Zeros"}, "gamma_initializer": {"config": {}, "class_name": "Ones"}, "gamma_regularizer": null, "beta_constraint": null}, "class_name": "BatchNormalization", "name": "inception_4e_3x3_bn1", "inbound_nodes": [[["inception_4e_3x3_conv1", 0, 0, {}]]]}, {"config": {"momentum": 0.99, "trainable": true, "name": "inception_4e_5x5_bn1", "center": true, "axis": 1, "beta_initializer": {"config": {}, "class_name": "Zeros"}, "beta_regularizer": null, "moving_variance_initializer": {"config": {}, "class_name": "Ones"}, "epsilon": 1e-05, "scale": true, "gamma_constraint": null, "moving_mean_initializer": {"config": {}, "class_name": "Zeros"}, "gamma_initializer": {"config": {}, "class_name": "Ones"}, "gamma_regularizer": null, "beta_constraint": null}, "class_name": "BatchNormalization", "name": "inception_4e_5x5_bn1", "inbound_nodes": [[["inception_4e_5x5_conv1", 0, 0, {}]]]}, {"config": {"activation": "relu", "trainable": true, "name": "activation_100"}, "class_name": "Activation", "name": "activation_100", "inbound_nodes": [[["inception_4e_3x3_bn1", 0, 0, {}]]]}, {"config": {"activation": "relu", "trainable": true, "name": "activation_102"}, "class_name": "Activation", "name": "activation_102", "inbound_nodes": [[["inception_4e_5x5_bn1", 0, 0, {}]]]}, {"config": {"trainable": true, "name": "zero_padding2d_63", "padding": [[1, 1], [1, 1]], "data_format": "channels_first"}, "class_name": "ZeroPadding2D", "name": "zero_padding2d_63", "inbound_nodes": [[["activation_100", 0, 0, {}]]]}, {"config": {"trainable": true, "name": "zero_padding2d_64", "padding": [[2, 2], [2, 2]], "data_format": "channels_first"}, "class_name": "ZeroPadding2D", "name": "zero_padding2d_64", "inbound_nodes": [[["activation_102", 0, 0, {}]]]}, {"config": {"trainable": true, "name": "inception_4e_3x3_conv2", "filters": 256, "kernel_constraint": null, "dilation_rate": [1, 1], "kernel_regularizer": null, "bias_initializer": {"config": {}, "class_name": "Zeros"}, "activation": "linear", "bias_regularizer": null, "strides": [2, 2], "kernel_initializer": {"config": {"scale": 1.0, "mode": "fan_avg", "seed": null, "distribution": "uniform"}, "class_name": "VarianceScaling"}, "padding": "valid", "data_format": "channels_first", "activity_regularizer": null, "bias_constraint": null, "use_bias": true, "kernel_size": [3, 3]}, "class_name": "Conv2D", "name": "inception_4e_3x3_conv2", "inbound_nodes": [[["zero_padding2d_63", 0, 0, {}]]]}, {"config": {"trainable": true, "name": "inception_4e_5x5_conv2", "filters": 128, "kernel_constraint": null, "dilation_rate": [1, 1], "kernel_regularizer": null, "bias_initializer": {"config": {}, "class_name": "Zeros"}, "activation": "linear", "bias_regularizer": null, "strides": [2, 2], "kernel_initializer": {"config": {"scale": 1.0, "mode": "fan_avg", "seed": null, "distribution": "uniform"}, "class_name": "VarianceScaling"}, "padding": "valid", "data_format": "channels_first", "activity_regularizer": null, "bias_constraint": null, "use_bias": true, "kernel_size": [5, 5]}, "class_name": "Conv2D", "name": "inception_4e_5x5_conv2", "inbound_nodes": [[["zero_padding2d_64", 0, 0, {}]]]}, {"config": {"momentum": 0.99, "trainable": true, "name": "inception_4e_3x3_bn2", "center": true, "axis": 1, "beta_initializer": {"config": {}, "class_name": "Zeros"}, "beta_regularizer": null, "moving_variance_initializer": {"config": {}, "class_name": "Ones"}, "epsilon": 1e-05, "scale": true, "gamma_constraint": null, "moving_mean_initializer": {"config": {}, "class_name": "Zeros"}, "gamma_initializer": {"config": {}, "class_name": "Ones"}, "gamma_regularizer": null, "beta_constraint": null}, "class_name": "BatchNormalization", "name": "inception_4e_3x3_bn2", "inbound_nodes": [[["inception_4e_3x3_conv2", 0, 0, {}]]]}, {"config": {"momentum": 0.99, "trainable": true, "name": "inception_4e_5x5_bn2", "center": true, "axis": 1, "beta_initializer": {"config": {}, "class_name": "Zeros"}, "beta_regularizer": null, "moving_variance_initializer": {"config": {}, "class_name": "Ones"}, "epsilon": 1e-05, "scale": true, "gamma_constraint": null, "moving_mean_initializer": {"config": {}, "class_name": "Zeros"}, "gamma_initializer": {"config": {}, "class_name": "Ones"}, "gamma_regularizer": null, "beta_constraint": null}, "class_name": "BatchNormalization", "name": "inception_4e_5x5_bn2", "inbound_nodes": [[["inception_4e_5x5_conv2", 0, 0, {}]]]}, {"config": {"trainable": true, "name": "max_pooling2d_17", "padding": "valid", "data_format": "channels_first", "pool_size": [3, 3], "strides": [2, 2]}, "class_name": "MaxPooling2D", "name": "max_pooling2d_17", "inbound_nodes": [[["concatenate_18", 0, 0, {}]]]}, {"config": {"activation": "relu", "trainable": true, "name": "activation_101"}, "class_name": "Activation", "name": "activation_101", "inbound_nodes": [[["inception_4e_3x3_bn2", 0, 0, {}]]]}, {"config": {"activation": "relu", "trainable": true, "name": "activation_103"}, "class_name": "Activation", "name": "activation_103", "inbound_nodes": [[["inception_4e_5x5_bn2", 0, 0, {}]]]}, {"config": {"trainable": true, "name": "zero_padding2d_65", "padding": [[0, 1], [0, 1]], "data_format": "channels_first"}, "class_name": "ZeroPadding2D", "name": "zero_padding2d_65", "inbound_nodes": [[["max_pooling2d_17", 0, 0, {}]]]}, {"config": {"trainable": true, "name": "concatenate_19", "axis": 1}, "class_name": "Concatenate", "name": "concatenate_19", "inbound_nodes": [[["activation_101", 0, 0, {}], ["activation_103", 0, 0, {}], ["zero_padding2d_65", 0, 0, {}]]]}, {"config": {"trainable": true, "name": "inception_5a_3x3_conv1", "filters": 96, "kernel_constraint": null, "dilation_rate": [1, 1], "kernel_regularizer": null, "bias_initializer": {"config": {}, "class_name": "Zeros"}, "activation": "linear", "bias_regularizer": null, "strides": [1, 1], "kernel_initializer": {"config": {"scale": 1.0, "mode": "fan_avg", "seed": null, "distribution": "uniform"}, "class_name": "VarianceScaling"}, "padding": "valid", "data_format": "channels_first", "activity_regularizer": null, "bias_constraint": null, "use_bias": true, "kernel_size": [1, 1]}, "class_name": "Conv2D", "name": "inception_5a_3x3_conv1", "inbound_nodes": [[["concatenate_19", 0, 0, {}]]]}, {"config": {"momentum": 0.99, "trainable": true, "name": "inception_5a_3x3_bn1", "center": true, "axis": 1, "beta_initializer": {"config": {}, "class_name": "Zeros"}, "beta_regularizer": null, "moving_variance_initializer": {"config": {}, "class_name": "Ones"}, "epsilon": 1e-05, "scale": true, "gamma_constraint": null, "moving_mean_initializer": {"config": {}, "class_name": "Zeros"}, "gamma_initializer": {"config": {}, "class_name": "Ones"}, "gamma_regularizer": null, "beta_constraint": null}, "class_name": "BatchNormalization", "name": "inception_5a_3x3_bn1", "inbound_nodes": [[["inception_5a_3x3_conv1", 0, 0, {}]]]}, {"config": {"activation": "relu", "trainable": true, "name": "activation_104"}, "class_name": "Activation", "name": "activation_104", "inbound_nodes": [[["inception_5a_3x3_bn1", 0, 0, {}]]]}, {"config": {"trainable": true, "name": "average_pooling2d_11", "padding": "valid", "data_format": "channels_first", "pool_size": [3, 3], "strides": [3, 3]}, "class_name": "AveragePooling2D", "name": "average_pooling2d_11", "inbound_nodes": [[["concatenate_19", 0, 0, {}]]]}, {"config": {"trainable": true, "name": "zero_padding2d_66", "padding": [[1, 1], [1, 1]], "data_format": "channels_first"}, "class_name": "ZeroPadding2D", "name": "zero_padding2d_66", "inbound_nodes": [[["activation_104", 0, 0, {}]]]}, {"config": {"trainable": true, "name": "inception_5a_pool_conv", "filters": 96, "kernel_constraint": null, "dilation_rate": [1, 1], "kernel_regularizer": null, "bias_initializer": {"config": {}, "class_name": "Zeros"}, "activation": "linear", "bias_regularizer": null, "strides": [1, 1], "kernel_initializer": {"config": {"scale": 1.0, "mode": "fan_avg", "seed": null, "distribution": "uniform"}, "class_name": "VarianceScaling"}, "padding": "valid", "data_format": "channels_first", "activity_regularizer": null, "bias_constraint": null, "use_bias": true, "kernel_size": [1, 1]}, "class_name": "Conv2D", "name": "inception_5a_pool_conv", "inbound_nodes": [[["average_pooling2d_11", 0, 0, {}]]]}, {"config": {"trainable": true, "name": "inception_5a_3x3_conv2", "filters": 384, "kernel_constraint": null, "dilation_rate": [1, 1], "kernel_regularizer": null, "bias_initializer": {"config": {}, "class_name": "Zeros"}, "activation": "linear", "bias_regularizer": null, "strides": [1, 1], "kernel_initializer": {"config": {"scale": 1.0, "mode": "fan_avg", "seed": null, "distribution": "uniform"}, "class_name": "VarianceScaling"}, "padding": "valid", "data_format": "channels_first", "activity_regularizer": null, "bias_constraint": null, "use_bias": true, "kernel_size": [3, 3]}, "class_name": "Conv2D", "name": "inception_5a_3x3_conv2", "inbound_nodes": [[["zero_padding2d_66", 0, 0, {}]]]}, {"config": {"momentum": 0.99, "trainable": true, "name": "inception_5a_pool_bn", "center": true, "axis": 1, "beta_initializer": {"config": {}, "class_name": "Zeros"}, "beta_regularizer": null, "moving_variance_initializer": {"config": {}, "class_name": "Ones"}, "epsilon": 1e-05, "scale": true, "gamma_constraint": null, "moving_mean_initializer": {"config": {}, "class_name": "Zeros"}, "gamma_initializer": {"config": {}, "class_name": "Ones"}, "gamma_regularizer": null, "beta_constraint": null}, "class_name": "BatchNormalization", "name": "inception_5a_pool_bn", "inbound_nodes": [[["inception_5a_pool_conv", 0, 0, {}]]]}, {"config": {"trainable": true, "name": "inception_5a_1x1_conv", "filters": 256, "kernel_constraint": null, "dilation_rate": [1, 1], "kernel_regularizer": null, "bias_initializer": {"config": {}, "class_name": "Zeros"}, "activation": "linear", "bias_regularizer": null, "strides": [1, 1], "kernel_initializer": {"config": {"scale": 1.0, "mode": "fan_avg", "seed": null, "distribution": "uniform"}, "class_name": "VarianceScaling"}, "padding": "valid", "data_format": "channels_first", "activity_regularizer": null, "bias_constraint": null, "use_bias": true, "kernel_size": [1, 1]}, "class_name": "Conv2D", "name": "inception_5a_1x1_conv", "inbound_nodes": [[["concatenate_19", 0, 0, {}]]]}, {"config": {"momentum": 0.99, "trainable": true, "name": "inception_5a_3x3_bn2", "center": true, "axis": 1, "beta_initializer": {"config": {}, "class_name": "Zeros"}, "beta_regularizer": null, "moving_variance_initializer": {"config": {}, "class_name": "Ones"}, "epsilon": 1e-05, "scale": true, "gamma_constraint": null, "moving_mean_initializer": {"config": {}, "class_name": "Zeros"}, "gamma_initializer": {"config": {}, "class_name": "Ones"}, "gamma_regularizer": null, "beta_constraint": null}, "class_name": "BatchNormalization", "name": "inception_5a_3x3_bn2", "inbound_nodes": [[["inception_5a_3x3_conv2", 0, 0, {}]]]}, {"config": {"activation": "relu", "trainable": true, "name": "activation_106"}, "class_name": "Activation", "name": "activation_106", "inbound_nodes": [[["inception_5a_pool_bn", 0, 0, {}]]]}, {"config": {"momentum": 0.99, "trainable": true, "name": "inception_5a_1x1_bn", "center": true, "axis": 1, "beta_initializer": {"config": {}, "class_name": "Zeros"}, "beta_regularizer": null, "moving_variance_initializer": {"config": {}, "class_name": "Ones"}, "epsilon": 1e-05, "scale": true, "gamma_constraint": null, "moving_mean_initializer": {"config": {}, "class_name": "Zeros"}, "gamma_initializer": {"config": {}, "class_name": "Ones"}, "gamma_regularizer": null, "beta_constraint": null}, "class_name": "BatchNormalization", "name": "inception_5a_1x1_bn", "inbound_nodes": [[["inception_5a_1x1_conv", 0, 0, {}]]]}, {"config": {"activation": "relu", "trainable": true, "name": "activation_105"}, "class_name": "Activation", "name": "activation_105", "inbound_nodes": [[["inception_5a_3x3_bn2", 0, 0, {}]]]}, {"config": {"trainable": true, "name": "zero_padding2d_67", "padding": [[1, 1], [1, 1]], "data_format": "channels_first"}, "class_name": "ZeroPadding2D", "name": "zero_padding2d_67", "inbound_nodes": [[["activation_106", 0, 0, {}]]]}, {"config": {"activation": "relu", "trainable": true, "name": "activation_107"}, "class_name": "Activation", "name": "activation_107", "inbound_nodes": [[["inception_5a_1x1_bn", 0, 0, {}]]]}, {"config": {"trainable": true, "name": "concatenate_20", "axis": 1}, "class_name": "Concatenate", "name": "concatenate_20", "inbound_nodes": [[["activation_105", 0, 0, {}], ["zero_padding2d_67", 0, 0, {}], ["activation_107", 0, 0, {}]]]}, {"config": {"trainable": true, "name": "inception_5b_3x3_conv1", "filters": 96, "kernel_constraint": null, "dilation_rate": [1, 1], "kernel_regularizer": null, "bias_initializer": {"config": {}, "class_name": "Zeros"}, "activation": "linear", "bias_regularizer": null, "strides": [1, 1], "kernel_initializer": {"config": {"scale": 1.0, "mode": "fan_avg", "seed": null, "distribution": "uniform"}, "class_name": "VarianceScaling"}, "padding": "valid", "data_format": "channels_first", "activity_regularizer": null, "bias_constraint": null, "use_bias": true, "kernel_size": [1, 1]}, "class_name": "Conv2D", "name": "inception_5b_3x3_conv1", "inbound_nodes": [[["concatenate_20", 0, 0, {}]]]}, {"config": {"momentum": 0.99, "trainable": true, "name": "inception_5b_3x3_bn1", "center": true, "axis": 1, "beta_initializer": {"config": {}, "class_name": "Zeros"}, "beta_regularizer": null, "moving_variance_initializer": {"config": {}, "class_name": "Ones"}, "epsilon": 1e-05, "scale": true, "gamma_constraint": null, "moving_mean_initializer": {"config": {}, "class_name": "Zeros"}, "gamma_initializer": {"config": {}, "class_name": "Ones"}, "gamma_regularizer": null, "beta_constraint": null}, "class_name": "BatchNormalization", "name": "inception_5b_3x3_bn1", "inbound_nodes": [[["inception_5b_3x3_conv1", 0, 0, {}]]]}, {"config": {"activation": "relu", "trainable": true, "name": "activation_108"}, "class_name": "Activation", "name": "activation_108", "inbound_nodes": [[["inception_5b_3x3_bn1", 0, 0, {}]]]}, {"config": {"trainable": true, "name": "max_pooling2d_18", "padding": "valid", "data_format": "channels_first", "pool_size": [3, 3], "strides": [2, 2]}, "class_name": "MaxPooling2D", "name": "max_pooling2d_18", "inbound_nodes": [[["concatenate_20", 0, 0, {}]]]}, {"config": {"trainable": true, "name": "zero_padding2d_68", "padding": [[1, 1], [1, 1]], "data_format": "channels_first"}, "class_name": "ZeroPadding2D", "name": "zero_padding2d_68", "inbound_nodes": [[["activation_108", 0, 0, {}]]]}, {"config": {"trainable": true, "name": "inception_5b_pool_conv", "filters": 96, "kernel_constraint": null, "dilation_rate": [1, 1], "kernel_regularizer": null, "bias_initializer": {"config": {}, "class_name": "Zeros"}, "activation": "linear", "bias_regularizer": null, "strides": [1, 1], "kernel_initializer": {"config": {"scale": 1.0, "mode": "fan_avg", "seed": null, "distribution": "uniform"}, "class_name": "VarianceScaling"}, "padding": "valid", "data_format": "channels_first", "activity_regularizer": null, "bias_constraint": null, "use_bias": true, "kernel_size": [1, 1]}, "class_name": "Conv2D", "name": "inception_5b_pool_conv", "inbound_nodes": [[["max_pooling2d_18", 0, 0, {}]]]}, {"config": {"trainable": true, "name": "inception_5b_3x3_conv2", "filters": 384, "kernel_constraint": null, "dilation_rate": [1, 1], "kernel_regularizer": null, "bias_initializer": {"config": {}, "class_name": "Zeros"}, "activation": "linear", "bias_regularizer": null, "strides": [1, 1], "kernel_initializer": {"config": {"scale": 1.0, "mode": "fan_avg", "seed": null, "distribution": "uniform"}, "class_name": "VarianceScaling"}, "padding": "valid", "data_format": "channels_first", "activity_regularizer": null, "bias_constraint": null, "use_bias": true, "kernel_size": [3, 3]}, "class_name": "Conv2D", "name": "inception_5b_3x3_conv2", "inbound_nodes": [[["zero_padding2d_68", 0, 0, {}]]]}, {"config": {"momentum": 0.99, "trainable": true, "name": "inception_5b_pool_bn", "center": true, "axis": 1, "beta_initializer": {"config": {}, "class_name": "Zeros"}, "beta_regularizer": null, "moving_variance_initializer": {"config": {}, "class_name": "Ones"}, "epsilon": 1e-05, "scale": true, "gamma_constraint": null, "moving_mean_initializer": {"config": {}, "class_name": "Zeros"}, "gamma_initializer": {"config": {}, "class_name": "Ones"}, "gamma_regularizer": null, "beta_constraint": null}, "class_name": "BatchNormalization", "name": "inception_5b_pool_bn", "inbound_nodes": [[["inception_5b_pool_conv", 0, 0, {}]]]}, {"config": {"trainable": true, "name": "inception_5b_1x1_conv", "filters": 256, "kernel_constraint": null, "dilation_rate": [1, 1], "kernel_regularizer": null, "bias_initializer": {"config": {}, "class_name": "Zeros"}, "activation": "linear", "bias_regularizer": null, "strides": [1, 1], "kernel_initializer": {"config": {"scale": 1.0, "mode": "fan_avg", "seed": null, "distribution": "uniform"}, "class_name": "VarianceScaling"}, "padding": "valid", "data_format": "channels_first", "activity_regularizer": null, "bias_constraint": null, "use_bias": true, "kernel_size": [1, 1]}, "class_name": "Conv2D", "name": "inception_5b_1x1_conv", "inbound_nodes": [[["concatenate_20", 0, 0, {}]]]}, {"config": {"momentum": 0.99, "trainable": true, "name": "inception_5b_3x3_bn2", "center": true, "axis": 1, "beta_initializer": {"config": {}, "class_name": "Zeros"}, "beta_regularizer": null, "moving_variance_initializer": {"config": {}, "class_name": "Ones"}, "epsilon": 1e-05, "scale": true, "gamma_constraint": null, "moving_mean_initializer": {"config": {}, "class_name": "Zeros"}, "gamma_initializer": {"config": {}, "class_name": "Ones"}, "gamma_regularizer": null, "beta_constraint": null}, "class_name": "BatchNormalization", "name": "inception_5b_3x3_bn2", "inbound_nodes": [[["inception_5b_3x3_conv2", 0, 0, {}]]]}, {"config": {"activation": "relu", "trainable": true, "name": "activation_110"}, "class_name": "Activation", "name": "activation_110", "inbound_nodes": [[["inception_5b_pool_bn", 0, 0, {}]]]}, {"config": {"momentum": 0.99, "trainable": true, "name": "inception_5b_1x1_bn", "center": true, "axis": 1, "beta_initializer": {"config": {}, "class_name": "Zeros"}, "beta_regularizer": null, "moving_variance_initializer": {"config": {}, "class_name": "Ones"}, "epsilon": 1e-05, "scale": true, "gamma_constraint": null, "moving_mean_initializer": {"config": {}, "class_name": "Zeros"}, "gamma_initializer": {"config": {}, "class_name": "Ones"}, "gamma_regularizer": null, "beta_constraint": null}, "class_name": "BatchNormalization", "name": "inception_5b_1x1_bn", "inbound_nodes": [[["inception_5b_1x1_conv", 0, 0, {}]]]}, {"config": {"activation": "relu", "trainable": true, "name": "activation_109"}, "class_name": "Activation", "name": "activation_109", "inbound_nodes": [[["inception_5b_3x3_bn2", 0, 0, {}]]]}, {"config": {"trainable": true, "name": "zero_padding2d_69", "padding": [[1, 1], [1, 1]], "data_format": "channels_first"}, "class_name": "ZeroPadding2D", "name": "zero_padding2d_69", "inbound_nodes": [[["activation_110", 0, 0, {}]]]}, {"config": {"activation": "relu", "trainable": true, "name": "activation_111"}, "class_name": "Activation", "name": "activation_111", "inbound_nodes": [[["inception_5b_1x1_bn", 0, 0, {}]]]}, {"config": {"trainable": true, "name": "concatenate_21", "axis": 1}, "class_name": "Concatenate", "name": "concatenate_21", "inbound_nodes": [[["activation_109", 0, 0, {}], ["zero_padding2d_69", 0, 0, {}], ["activation_111", 0, 0, {}]]]}, {"config": {"trainable": true, "name": "average_pooling2d_12", "padding": "valid", "data_format": "channels_first", "pool_size": [3, 3], "strides": [1, 1]}, "class_name": "AveragePooling2D", "name": "average_pooling2d_12", "inbound_nodes": [[["concatenate_21", 0, 0, {}]]]}, {"config": {"trainable": true, "name": "flatten_3"}, "class_name": "Flatten", "name": "flatten_3", "inbound_nodes": [[["average_pooling2d_12", 0, 0, {}]]]}, {"config": {"trainable": true, "name": "dense_layer", "kernel_constraint": null, "kernel_regularizer": null, "bias_initializer": {"config": {}, "class_name": "Zeros"}, "activation": "linear", "bias_regularizer": null, "activity_regularizer": null, "kernel_initializer": {"config": {"scale": 1.0, "mode": "fan_avg", "seed": null, "distribution": "uniform"}, "class_name": "VarianceScaling"}, "units": 128, "bias_constraint": null, "use_bias": true}, "class_name": "Dense", "name": "dense_layer", "inbound_nodes": [[["flatten_3", 0, 0, {}]]]}, {"config": {"output_shape_type": "raw", "trainable": true, "name": "lambda_3", "output_shape": null, "function_type": "lambda", "arguments": {}, "function": ["4wEAAAAAAAAAAQAAAAQAAABTAAAAcxMAAAB0AABqAQB8AABkAQBkAgCDAQFTKQNO2gRheGlz6QEA\nAAApAtoBS9oMbDJfbm9ybWFsaXplKQHaAXipAHIGAAAA+jEvaG9tZS9jaHVoYW4vTUwvZmFjZUF0\ndGFjay9pbmNlcHRpb25fYmxvY2tzX3YyLnB52gg8bGFtYmRhPhQBAABzAAAAAA==\n", null, null]}, "class_name": "Lambda", "name": "lambda_3", "inbound_nodes": [[["dense_layer", 0, 0, {}]]]}], "output_layers": [["lambda_3", 0, 0]]}, "class_name": "Model", "keras_version": "2.1.5", "backend": "tensorflow"}